…
Attention map: tensor([[[[… device='cuda:0', grad_fn=<DivBackward0>)
WARNING:root:zero len array in func all_acc(), return None!
2025-03-19:03:16:48 [WARNING ] [trainer_cls.py:590] zero len array in func all_acc(), return None!
WARNING:root:zero len array in func all_acc(), return None!
2025-03-19:03:16:48 [WARNING ] [trainer_cls.py:590] zero len array in func all_acc(), return None!
INFO:root:Epoch9: Loss:18.678738936781883 Training Acc:91.56944444444444(19779/21600)
2025-03-19:03:16:48 [INFO    ] [nad.py:622] Epoch9: Loss:18.678738936781883 Training Acc:91.56944444444444(19779/21600)
features_out shape: [Sequential(
  (0): ConvNormActivation(
    (0): Conv2d(3, 40, kernel_size=(3, 3), stride=(2, 2), padding=(1, 1), bias=False)
    (1): BatchNorm2d(40, eps=1e-05, momentum=0.1, affine=True, track_running_stats=True)
    (2): SiLU(inplace=True)
  )
  (1): Sequential(
    (0): MBConv(
      (block): Sequential(
        (0): ConvNormActivation(
          (0): Conv2d(40, 40, kernel_size=(3, 3), stride=(1, 1), padding=(1, 1), groups=40, bias=False)
          (1): BatchNorm2d(40, eps=1e-05, momentum=0.1, affine=True, track_running_stats=True)
          (2): SiLU(inplace=True)
        )
        (1): SqueezeExcitation(
          (avgpool): AdaptiveAvgPool2d(output_size=1)
          (fc1): Conv2d(40, 10, kernel_size=(1, 1), stride=(1, 1))
          (fc2): Conv2d(10, 40, kernel_size=(1, 1), stride=(1, 1))
          (activation): SiLU(inplace=True)
          (scale_activation): Sigmoid()
        )
        (2): ConvNormActivation(
          (0): Conv2d(40, 24, kernel_size=(1, 1), stride=(1, 1), bias=False)
          (1): BatchNorm2d(24, eps=1e-05, momentum=0.1, affine=True, track_running_stats=True)
        )
      )
      (stochastic_depth): StochasticDepth(p=0.0, mode=row)
    )
    (1): MBConv(
      (block): Sequential(
        (0): ConvNormActivation(
          (0): Conv2d(24, 24, kernel_size=(3, 3), stride=(1, 1), padding=(1, 1), groups=24, bias=False)
          (1): BatchNorm2d(24, eps=1e-05, momentum=0.1, affine=True, track_running_stats=True)
          (2): SiLU(inplace=True)
        )
        (1): SqueezeExcitation(
          (avgpool): AdaptiveAvgPool2d(output_size=1)
          (fc1): Conv2d(24, 6, kernel_size=(1, 1), stride=(1, 1))
          (fc2): Conv2d(6, 24, kernel_size=(1, 1), stride=(1, 1))
          (activation): SiLU(inplace=True)
          (scale_activation): Sigmoid()
        )
        (2): ConvNormActivation(
          (0): Conv2d(24, 24, kernel_size=(1, 1), stride=(1, 1), bias=False)
          (1): BatchNorm2d(24, eps=1e-05, momentum=0.1, affine=True, track_running_stats=True)
        )
      )
      (stochastic_depth): StochasticDepth(p=0.007692307692307693, mode=row)
    )
  )
  (2): Sequential(
    (0): MBConv(
      (block): Sequential(
        (0): ConvNormActivation(
          (0): Conv2d(24, 144, kernel_size=(1, 1), stride=(1, 1), bias=False)
          (1): BatchNorm2d(144, eps=1e-05, momentum=0.1, affine=True, track_running_stats=True)
          (2): SiLU(inplace=True)
        )
        (1): ConvNormActivation(
          (0): Conv2d(144, 144, kernel_size=(3, 3), stride=(2, 2), padding=(1, 1), groups=144, bias=False)
          (1): BatchNorm2d(144, eps=1e-05, momentum=0.1, affine=True, track_running_stats=True)
          (2): SiLU(inplace=True)
        )
        (2): SqueezeExcitation(
          (avgpool): AdaptiveAvgPool2d(output_size=1)
          (fc1): Conv2d(144, 6, kernel_size=(1, 1), stride=(1, 1))
          (fc2): Conv2d(6, 144, kernel_size=(1, 1), stride=(1, 1))
          (activation): SiLU(inplace=True)
          (scale_activation): Sigmoid()
        )
        (3): ConvNormActivation(
          (0): Conv2d(144, 32, kernel_size=(1, 1), stride=(1, 1), bias=False)
          (1): BatchNorm2d(32, eps=1e-05, momentum=0.1, affine=True, track_running_stats=True)
        )
      )
      (stochastic_depth): StochasticDepth(p=0.015384615384615385, mode=row)
    )
    (1): MBConv(
      (block): Sequential(
        (0): ConvNormActivation(
          (0): Conv2d(32, 192, kernel_size=(1, 1), stride=(1, 1), bias=False)
          (1): BatchNorm2d(192, eps=1e-05, momentum=0.1, affine=True, track_running_stats=True)
          (2): SiLU(inplace=True)
        )
        (1): ConvNormActivation(
          (0): Conv2d(192, 192, kernel_size=(3, 3), stride=(1, 1), padding=(1, 1), groups=192, bias=False)
          (1): BatchNorm2d(192, eps=1e-05, momentum=0.1, affine=True, track_running_stats=True)
          (2): SiLU(inplace=True)
        )
        (2): SqueezeExcitation(
          (avgpool): AdaptiveAvgPool2d(output_size=1)
          (fc1): Conv2d(192, 8, kernel_size=(1, 1), stride=(1, 1))
          (fc2): Conv2d(8, 192, kernel_size=(1, 1), stride=(1, 1))
          (activation): SiLU(inplace=True)
          (scale_activation): Sigmoid()
        )
        (3): ConvNormActivation(
          (0): Conv2d(192, 32, kernel_size=(1, 1), stride=(1, 1), bias=False)
          (1): BatchNorm2d(32, eps=1e-05, momentum=0.1, affine=True, track_running_stats=True)
        )
      )
      (stochastic_depth): StochasticDepth(p=0.02307692307692308, mode=row)
    )
    (2): MBConv(
      (block): Sequential(
        (0): ConvNormActivation(
          (0): Conv2d(32, 192, kernel_size=(1, 1), stride=(1, 1), bias=False)
          (1): BatchNorm2d(192, eps=1e-05, momentum=0.1, affine=True, track_running_stats=True)
          (2): SiLU(inplace=True)
        )
        (1): ConvNormActivation(
          (0): Conv2d(192, 192, kernel_size=(3, 3), stride=(1, 1), padding=(1, 1), groups=192, bias=False)
          (1): BatchNorm2d(192, eps=1e-05, momentum=0.1, affine=True, track_running_stats=True)
          (2): SiLU(inplace=True)
        )
        (2): SqueezeExcitation(
          (avgpool): AdaptiveAvgPool2d(output_size=1)
          (fc1): Conv2d(192, 8, kernel_size=(1, 1), stride=(1, 1))
          (fc2): Conv2d(8, 192, kernel_size=(1, 1), stride=(1, 1))
          (activation): SiLU(inplace=True)
          (scale_activation): Sigmoid()
        )
        (3): ConvNormActivation(
          (0): Conv2d(192, 32, kernel_size=(1, 1), stride=(1, 1), bias=False)
          (1): BatchNorm2d(32, eps=1e-05, momentum=0.1, affine=True, track_running_stats=True)
        )
      )
      (stochastic_depth): StochasticDepth(p=0.03076923076923077, mode=row)
    )
  )
  (3): Sequential(
    (0): MBConv(
      (block): Sequential(
        (0): ConvNormActivation(
          (0): Conv2d(32, 192, kernel_size=(1, 1), stride=(1, 1), bias=False)
          (1): BatchNorm2d(192, eps=1e-05, momentum=0.1, affine=True, track_running_stats=True)
          (2): SiLU(inplace=True)
        )
        (1): ConvNormActivation(
          (0): Conv2d(192, 192, kernel_size=(5, 5), stride=(2, 2), padding=(2, 2), groups=192, bias=False)
          (1): BatchNorm2d(192, eps=1e-05, momentum=0.1, affine=True, track_running_stats=True)
          (2): SiLU(inplace=True)
        )
        (2): SqueezeExcitation(
          (avgpool): AdaptiveAvgPool2d(output_size=1)
          (fc1): Conv2d(192, 8, kernel_size=(1, 1), stride=(1, 1))
          (fc2): Conv2d(8, 192, kernel_size=(1, 1), stride=(1, 1))
          (activation): SiLU(inplace=True)
          (scale_activation): Sigmoid()
        )
        (3): ConvNormActivation(
          (0): Conv2d(192, 48, kernel_size=(1, 1), stride=(1, 1), bias=False)
          (1): BatchNorm2d(48, eps=1e-05, momentum=0.1, affine=True, track_running_stats=True)
        )
      )
      (stochastic_depth): StochasticDepth(p=0.038461538461538464, mode=row)
    )
    (1): MBConv(
      (block): Sequential(
        (0): ConvNormActivation(
          (0): Conv2d(48, 288, kernel_size=(1, 1), stride=(1, 1), bias=False)
          (1): BatchNorm2d(288, eps=1e-05, momentum=0.1, affine=True, track_running_stats=True)
          (2): SiLU(inplace=True)
        )
        (1): ConvNormActivation(
          (0): Conv2d(288, 288, kernel_size=(5, 5), stride=(1, 1), padding=(2, 2), groups=288, bias=False)
          (1): BatchNorm2d(288, eps=1e-05, momentum=0.1, affine=True, track_running_stats=True)
          (2): SiLU(inplace=True)
        )
        (2): SqueezeExcitation(
          (avgpool): AdaptiveAvgPool2d(output_size=1)
          (fc1): Conv2d(288, 12, kernel_size=(1, 1), stride=(1, 1))
          (fc2): Conv2d(12, 288, kernel_size=(1, 1), stride=(1, 1))
          (activation): SiLU(inplace=True)
          (scale_activation): Sigmoid()
        )
        (3): ConvNormActivation(
          (0): Conv2d(288, 48, kernel_size=(1, 1), stride=(1, 1), bias=False)
          (1): BatchNorm2d(48, eps=1e-05, momentum=0.1, affine=True, track_running_stats=True)
        )
      )
      (stochastic_depth): StochasticDepth(p=0.04615384615384616, mode=row)
    )
    (2): MBConv(
      (block): Sequential(
        (0): ConvNormActivation(
          (0): Conv2d(48, 288, kernel_size=(1, 1), stride=(1, 1), bias=False)
          (1): BatchNorm2d(288, eps=1e-05, momentum=0.1, affine=True, track_running_stats=True)
          (2): SiLU(inplace=True)
        )
        (1): ConvNormActivation(
          (0): Conv2d(288, 288, kernel_size=(5, 5), stride=(1, 1), padding=(2, 2), groups=288, bias=False)
          (1): BatchNorm2d(288, eps=1e-05, momentum=0.1, affine=True, track_running_stats=True)
          (2): SiLU(inplace=True)
        )
        (2): SqueezeExcitation(
          (avgpool): AdaptiveAvgPool2d(output_size=1)
          (fc1): Conv2d(288, 12, kernel_size=(1, 1), stride=(1, 1))
          (fc2): Conv2d(12, 288, kernel_size=(1, 1), stride=(1, 1))
          (activation): SiLU(inplace=True)
          (scale_activation): Sigmoid()
        )
        (3): ConvNormActivation(
          (0): Conv2d(288, 48, kernel_size=(1, 1), stride=(1, 1), bias=False)
          (1): BatchNorm2d(48, eps=1e-05, momentum=0.1, affine=True, track_running_stats=True)
        )
      )
      (stochastic_depth): StochasticDepth(p=0.05384615384615385, mode=row)
    )
  )
  (4): Sequential(
    (0): MBConv(
      (block): Sequential(
        (0): ConvNormActivation(
          (0): Conv2d(48, 288, kernel_size=(1, 1), stride=(1, 1), bias=False)
          (1): BatchNorm2d(288, eps=1e-05, momentum=0.1, affine=True, track_running_stats=True)
          (2): SiLU(inplace=True)
        )
        (1): ConvNormActivation(
          (0): Conv2d(288, 288, kernel_size=(3, 3), stride=(2, 2), padding=(1, 1), groups=288, bias=False)
          (1): BatchNorm2d(288, eps=1e-05, momentum=0.1, affine=True, track_running_stats=True)
          (2): SiLU(inplace=True)
        )
        (2): SqueezeExcitation(
          (avgpool): AdaptiveAvgPool2d(output_size=1)
          (fc1): Conv2d(288, 12, kernel_size=(1, 1), stride=(1, 1))
          (fc2): Conv2d(12, 288, kernel_size=(1, 1), stride=(1, 1))
          (activation): SiLU(inplace=True)
          (scale_activation): Sigmoid()
        )
        (3): ConvNormActivation(
          (0): Conv2d(288, 96, kernel_size=(1, 1), stride=(1, 1), bias=False)
          (1): BatchNorm2d(96, eps=1e-05, momentum=0.1, affine=True, track_running_stats=True)
        )
      )
      (stochastic_depth): StochasticDepth(p=0.06153846153846154, mode=row)
    )
    (1): MBConv(
      (block): Sequential(
        (0): ConvNormActivation(
          (0): Conv2d(96, 576, kernel_size=(1, 1), stride=(1, 1), bias=False)
          (1): BatchNorm2d(576, eps=1e-05, momentum=0.1, affine=True, track_running_stats=True)
          (2): SiLU(inplace=True)
        )
        (1): ConvNormActivation(
          (0): Conv2d(576, 576, kernel_size=(3, 3), stride=(1, 1), padding=(1, 1), groups=576, bias=False)
          (1): BatchNorm2d(576, eps=1e-05, momentum=0.1, affine=True, track_running_stats=True)
          (2): SiLU(inplace=True)
        )
        (2): SqueezeExcitation(
          (avgpool): AdaptiveAvgPool2d(output_size=1)
          (fc1): Conv2d(576, 24, kernel_size=(1, 1), stride=(1, 1))
          (fc2): Conv2d(24, 576, kernel_size=(1, 1), stride=(1, 1))
          (activation): SiLU(inplace=True)
          (scale_activation): Sigmoid()
        )
        (3): ConvNormActivation(
          (0): Conv2d(576, 96, kernel_size=(1, 1), stride=(1, 1), bias=False)
          (1): BatchNorm2d(96, eps=1e-05, momentum=0.1, affine=True, track_running_stats=True)
        )
      )
      (stochastic_depth): StochasticDepth(p=0.06923076923076923, mode=row)
    )
    (2): MBConv(
      (block): Sequential(
        (0): ConvNormActivation(
          (0): Conv2d(96, 576, kernel_size=(1, 1), stride=(1, 1), bias=False)
          (1): BatchNorm2d(576, eps=1e-05, momentum=0.1, affine=True, track_running_stats=True)
          (2): SiLU(inplace=True)
        )
        (1): ConvNormActivation(
          (0): Conv2d(576, 576, kernel_size=(3, 3), stride=(1, 1), padding=(1, 1), groups=576, bias=False)
          (1): BatchNorm2d(576, eps=1e-05, momentum=0.1, affine=True, track_running_stats=True)
          (2): SiLU(inplace=True)
        )
        (2): SqueezeExcitation(
          (avgpool): AdaptiveAvgPool2d(output_size=1)
          (fc1): Conv2d(576, 24, kernel_size=(1, 1), stride=(1, 1))
          (fc2): Conv2d(24, 576, kernel_size=(1, 1), stride=(1, 1))
          (activation): SiLU(inplace=True)
          (scale_activation): Sigmoid()
        )
        (3): ConvNormActivation(
          (0): Conv2d(576, 96, kernel_size=(1, 1), stride=(1, 1), bias=False)
          (1): BatchNorm2d(96, eps=1e-05, momentum=0.1, affine=True, track_running_stats=True)
        )
      )
      (stochastic_depth): StochasticDepth(p=0.07692307692307693, mode=row)
    )
    (3): MBConv(
      (block): Sequential(
        (0): ConvNormActivation(
          (0): Conv2d(96, 576, kernel_size=(1, 1), stride=(1, 1), bias=False)
          (1): BatchNorm2d(576, eps=1e-05, momentum=0.1, affine=True, track_running_stats=True)
          (2): SiLU(inplace=True)
        )
        (1): ConvNormActivation(
          (0): Conv2d(576, 576, kernel_size=(3, 3), stride=(1, 1), padding=(1, 1), groups=576, bias=False)
          (1): BatchNorm2d(576, eps=1e-05, momentum=0.1, affine=True, track_running_stats=True)
          (2): SiLU(inplace=True)
        )
        (2): SqueezeExcitation(
          (avgpool): AdaptiveAvgPool2d(output_size=1)
          (fc1): Conv2d(576, 24, kernel_size=(1, 1), stride=(1, 1))
          (fc2): Conv2d(24, 576, kernel_size=(1, 1), stride=(1, 1))
          (activation): SiLU(inplace=True)
          (scale_activation): Sigmoid()
        )
        (3): ConvNormActivation(
          (0): Conv2d(576, 96, kernel_size=(1, 1), stride=(1, 1), bias=False)
          (1): BatchNorm2d(96, eps=1e-05, momentum=0.1, affine=True, track_running_stats=True)
        )
      )
      (stochastic_depth): StochasticDepth(p=0.08461538461538462, mode=row)
    )
    (4): MBConv(
      (block): Sequential(
        (0): ConvNormActivation(
          (0): Conv2d(96, 576, kernel_size=(1, 1), stride=(1, 1), bias=False)
          (1): BatchNorm2d(576, eps=1e-05, momentum=0.1, affine=True, track_running_stats=True)
          (2): SiLU(inplace=True)
        )
        (1): ConvNormActivation(
          (0): Conv2d(576, 576, kernel_size=(3, 3), stride=(1, 1), padding=(1, 1), groups=576, bias=False)
          (1): BatchNorm2d(576, eps=1e-05, momentum=0.1, affine=True, track_running_stats=True)
          (2): SiLU(inplace=True)
        )
        (2): SqueezeExcitation(
          (avgpool): AdaptiveAvgPool2d(output_size=1)
          (fc1): Conv2d(576, 24, kernel_size=(1, 1), stride=(1, 1))
          (fc2): Conv2d(24, 576, kernel_size=(1, 1), stride=(1, 1))
          (activation): SiLU(inplace=True)
          (scale_activation): Sigmoid()
        )
        (3): ConvNormActivation(
          (0): Conv2d(576, 96, kernel_size=(1, 1), stride=(1, 1), bias=False)
          (1): BatchNorm2d(96, eps=1e-05, momentum=0.1, affine=True, track_running_stats=True)
        )
      )
      (stochastic_depth): StochasticDepth(p=0.09230769230769233, mode=row)
    )
  )
  (5): Sequential(
    (0): MBConv(
      (block): Sequential(
        (0): ConvNormActivation(
          (0): Conv2d(96, 576, kernel_size=(1, 1), stride=(1, 1), bias=False)
          (1): BatchNorm2d(576, eps=1e-05, momentum=0.1, affine=True, track_running_stats=True)
          (2): SiLU(inplace=True)
        )
        (1): ConvNormActivation(
          (0): Conv2d(576, 576, kernel_size=(5, 5), stride=(1, 1), padding=(2, 2), groups=576, bias=False)
          (1): BatchNorm2d(576, eps=1e-05, momentum=0.1, affine=True, track_running_stats=True)
          (2): SiLU(inplace=True)
        )
        (2): SqueezeExcitation(
          (avgpool): AdaptiveAvgPool2d(output_size=1)
          (fc1): Conv2d(576, 24, kernel_size=(1, 1), stride=(1, 1))
          (fc2): Conv2d(24, 576, kernel_size=(1, 1), stride=(1, 1))
          (activation): SiLU(inplace=True)
          (scale_activation): Sigmoid()
        )
        (3): ConvNormActivation(
          (0): Conv2d(576, 136, kernel_size=(1, 1), stride=(1, 1), bias=False)
          (1): BatchNorm2d(136, eps=1e-05, momentum=0.1, affine=True, track_running_stats=True)
        )
      )
      (stochastic_depth): StochasticDepth(p=0.1, mode=row)
    )
    (1): MBConv(
      (block): Sequential(
        (0): ConvNormActivation(
          (0): Conv2d(136, 816, kernel_size=(1, 1), stride=(1, 1), bias=False)
          (1): BatchNorm2d(816, eps=1e-05, momentum=0.1, affine=True, track_running_stats=True)
          (2): SiLU(inplace=True)
        )
        (1): ConvNormActivation(
          (0): Conv2d(816, 816, kernel_size=(5, 5), stride=(1, 1), padding=(2, 2), groups=816, bias=False)
          (1): BatchNorm2d(816, eps=1e-05, momentum=0.1, affine=True, track_running_stats=True)
          (2): SiLU(inplace=True)
        )
        (2): SqueezeExcitation(
          (avgpool): AdaptiveAvgPool2d(output_size=1)
          (fc1): Conv2d(816, 34, kernel_size=(1, 1), stride=(1, 1))
          (fc2): Conv2d(34, 816, kernel_size=(1, 1), stride=(1, 1))
          (activation): SiLU(inplace=True)
          (scale_activation): Sigmoid()
        )
        (3): ConvNormActivation(
          (0): Conv2d(816, 136, kernel_size=(1, 1), stride=(1, 1), bias=False)
          (1): BatchNorm2d(136, eps=1e-05, momentum=0.1, affine=True, track_running_stats=True)
        )
      )
      (stochastic_depth): StochasticDepth(p=0.1076923076923077, mode=row)
    )
    (2): MBConv(
      (block): Sequential(
        (0): ConvNormActivation(
          (0): Conv2d(136, 816, kernel_size=(1, 1), stride=(1, 1), bias=False)
          (1): BatchNorm2d(816, eps=1e-05, momentum=0.1, affine=True, track_running_stats=True)
          (2): SiLU(inplace=True)
        )
        (1): ConvNormActivation(
          (0): Conv2d(816, 816, kernel_size=(5, 5), stride=(1, 1), padding=(2, 2), groups=816, bias=False)
          (1): BatchNorm2d(816, eps=1e-05, momentum=0.1, affine=True, track_running_stats=True)
          (2): SiLU(inplace=True)
        )
        (2): SqueezeExcitation(
          (avgpool): AdaptiveAvgPool2d(output_size=1)
          (fc1): Conv2d(816, 34, kernel_size=(1, 1), stride=(1, 1))
          (fc2): Conv2d(34, 816, kernel_size=(1, 1), stride=(1, 1))
          (activation): SiLU(inplace=True)
          (scale_activation): Sigmoid()
        )
        (3): ConvNormActivation(
          (0): Conv2d(816, 136, kernel_size=(1, 1), stride=(1, 1), bias=False)
          (1): BatchNorm2d(136, eps=1e-05, momentum=0.1, affine=True, track_running_stats=True)
        )
      )
      (stochastic_depth): StochasticDepth(p=0.11538461538461539, mode=row)
    )
    (3): MBConv(
      (block): Sequential(
        (0): ConvNormActivation(
          (0): Conv2d(136, 816, kernel_size=(1, 1), stride=(1, 1), bias=False)
          (1): BatchNorm2d(816, eps=1e-05, momentum=0.1, affine=True, track_running_stats=True)
          (2): SiLU(inplace=True)
        )
        (1): ConvNormActivation(
          (0): Conv2d(816, 816, kernel_size=(5, 5), stride=(1, 1), padding=(2, 2), groups=816, bias=False)
          (1): BatchNorm2d(816, eps=1e-05, momentum=0.1, affine=True, track_running_stats=True)
          (2): SiLU(inplace=True)
        )
        (2): SqueezeExcitation(
          (avgpool): AdaptiveAvgPool2d(output_size=1)
          (fc1): Conv2d(816, 34, kernel_size=(1, 1), stride=(1, 1))
          (fc2): Conv2d(34, 816, kernel_size=(1, 1), stride=(1, 1))
          (activation): SiLU(inplace=True)
          (scale_activation): Sigmoid()
        )
        (3): ConvNormActivation(
          (0): Conv2d(816, 136, kernel_size=(1, 1), stride=(1, 1), bias=False)
          (1): BatchNorm2d(136, eps=1e-05, momentum=0.1, affine=True, track_running_stats=True)
        )
      )
      (stochastic_depth): StochasticDepth(p=0.12307692307692308, mode=row)
    )
    (4): MBConv(
      (block): Sequential(
        (0): ConvNormActivation(
          (0): Conv2d(136, 816, kernel_size=(1, 1), stride=(1, 1), bias=False)
          (1): BatchNorm2d(816, eps=1e-05, momentum=0.1, affine=True, track_running_stats=True)
          (2): SiLU(inplace=True)
        )
        (1): ConvNormActivation(
          (0): Conv2d(816, 816, kernel_size=(5, 5), stride=(1, 1), padding=(2, 2), groups=816, bias=False)
          (1): BatchNorm2d(816, eps=1e-05, momentum=0.1, affine=True, track_running_stats=True)
          (2): SiLU(inplace=True)
        )
        (2): SqueezeExcitation(
          (avgpool): AdaptiveAvgPool2d(output_size=1)
          (fc1): Conv2d(816, 34, kernel_size=(1, 1), stride=(1, 1))
          (fc2): Conv2d(34, 816, kernel_size=(1, 1), stride=(1, 1))
          (activation): SiLU(inplace=True)
          (scale_activation): Sigmoid()
        )
        (3): ConvNormActivation(
          (0): Conv2d(816, 136, kernel_size=(1, 1), stride=(1, 1), bias=False)
          (1): BatchNorm2d(136, eps=1e-05, momentum=0.1, affine=True, track_running_stats=True)
        )
      )
      (stochastic_depth): StochasticDepth(p=0.13076923076923078, mode=row)
    )
  )
  (6): Sequential(
    (0): MBConv(
      (block): Sequential(
        (0): ConvNormActivation(
          (0): Conv2d(136, 816, kernel_size=(1, 1), stride=(1, 1), bias=False)
          (1): BatchNorm2d(816, eps=1e-05, momentum=0.1, affine=True, track_running_stats=True)
          (2): SiLU(inplace=True)
        )
        (1): ConvNormActivation(
          (0): Conv2d(816, 816, kernel_size=(5, 5), stride=(2, 2), padding=(2, 2), groups=816, bias=False)
          (1): BatchNorm2d(816, eps=1e-05, momentum=0.1, affine=True, track_running_stats=True)
          (2): SiLU(inplace=True)
        )
        (2): SqueezeExcitation(
          (avgpool): AdaptiveAvgPool2d(output_size=1)
          (fc1): Conv2d(816, 34, kernel_size=(1, 1), stride=(1, 1))
          (fc2): Conv2d(34, 816, kernel_size=(1, 1), stride=(1, 1))
          (activation): SiLU(inplace=True)
          (scale_activation): Sigmoid()
        )
        (3): ConvNormActivation(
          (0): Conv2d(816, 232, kernel_size=(1, 1), stride=(1, 1), bias=False)
          (1): BatchNorm2d(232, eps=1e-05, momentum=0.1, affine=True, track_running_stats=True)
        )
      )
      (stochastic_depth): StochasticDepth(p=0.13846153846153847, mode=row)
    )
    (1): MBConv(
      (block): Sequential(
        (0): ConvNormActivation(
          (0): Conv2d(232, 1392, kernel_size=(1, 1), stride=(1, 1), bias=False)
          (1): BatchNorm2d(1392, eps=1e-05, momentum=0.1, affine=True, track_running_stats=True)
          (2): SiLU(inplace=True)
        )
        (1): ConvNormActivation(
          (0): Conv2d(1392, 1392, kernel_size=(5, 5), stride=(1, 1), padding=(2, 2), groups=1392, bias=False)
          (1): BatchNorm2d(1392, eps=1e-05, momentum=0.1, affine=True, track_running_stats=True)
          (2): SiLU(inplace=True)
        )
        (2): SqueezeExcitation(
          (avgpool): AdaptiveAvgPool2d(output_size=1)
          (fc1): Conv2d(1392, 58, kernel_size=(1, 1), stride=(1, 1))
          (fc2): Conv2d(58, 1392, kernel_size=(1, 1), stride=(1, 1))
          (activation): SiLU(inplace=True)
          (scale_activation): Sigmoid()
        )
        (3): ConvNormActivation(
          (0): Conv2d(1392, 232, kernel_size=(1, 1), stride=(1, 1), bias=False)
          (1): BatchNorm2d(232, eps=1e-05, momentum=0.1, affine=True, track_running_stats=True)
        )
      )
      (stochastic_depth): StochasticDepth(p=0.14615384615384616, mode=row)
    )
    (2): MBConv(
      (block): Sequential(
        (0): ConvNormActivation(
          (0): Conv2d(232, 1392, kernel_size=(1, 1), stride=(1, 1), bias=False)
          (1): BatchNorm2d(1392, eps=1e-05, momentum=0.1, affine=True, track_running_stats=True)
          (2): SiLU(inplace=True)
        )
        (1): ConvNormActivation(
          (0): Conv2d(1392, 1392, kernel_size=(5, 5), stride=(1, 1), padding=(2, 2), groups=1392, bias=False)
          (1): BatchNorm2d(1392, eps=1e-05, momentum=0.1, affine=True, track_running_stats=True)
          (2): SiLU(inplace=True)
        )
        (2): SqueezeExcitation(
          (avgpool): AdaptiveAvgPool2d(output_size=1)
          (fc1): Conv2d(1392, 58, kernel_size=(1, 1), stride=(1, 1))
          (fc2): Conv2d(58, 1392, kernel_size=(1, 1), stride=(1, 1))
          (activation): SiLU(inplace=True)
          (scale_activation): Sigmoid()
        )
        (3): ConvNormActivation(
          (0): Conv2d(1392, 232, kernel_size=(1, 1), stride=(1, 1), bias=False)
          (1): BatchNorm2d(232, eps=1e-05, momentum=0.1, affine=True, track_running_stats=True)
        )
      )
      (stochastic_depth): StochasticDepth(p=0.15384615384615385, mode=row)
    )
    (3): MBConv(
      (block): Sequential(
        (0): ConvNormActivation(
          (0): Conv2d(232, 1392, kernel_size=(1, 1), stride=(1, 1), bias=False)
          (1): BatchNorm2d(1392, eps=1e-05, momentum=0.1, affine=True, track_running_stats=True)
          (2): SiLU(inplace=True)
        )
        (1): ConvNormActivation(
          (0): Conv2d(1392, 1392, kernel_size=(5, 5), stride=(1, 1), padding=(2, 2), groups=1392, bias=False)
          (1): BatchNorm2d(1392, eps=1e-05, momentum=0.1, affine=True, track_running_stats=True)
          (2): SiLU(inplace=True)
        )
        (2): SqueezeExcitation(
          (avgpool): AdaptiveAvgPool2d(output_size=1)
          (fc1): Conv2d(1392, 58, kernel_size=(1, 1), stride=(1, 1))
          (fc2): Conv2d(58, 1392, kernel_size=(1, 1), stride=(1, 1))
          (activation): SiLU(inplace=True)
          (scale_activation): Sigmoid()
        )
        (3): ConvNormActivation(
          (0): Conv2d(1392, 232, kernel_size=(1, 1), stride=(1, 1), bias=False)
          (1): BatchNorm2d(232, eps=1e-05, momentum=0.1, affine=True, track_running_stats=True)
        )
      )
      (stochastic_depth): StochasticDepth(p=0.16153846153846155, mode=row)
    )
    (4): MBConv(
      (block): Sequential(
        (0): ConvNormActivation(
          (0): Conv2d(232, 1392, kernel_size=(1, 1), stride=(1, 1), bias=False)
          (1): BatchNorm2d(1392, eps=1e-05, momentum=0.1, affine=True, track_running_stats=True)
          (2): SiLU(inplace=True)
        )
        (1): ConvNormActivation(
          (0): Conv2d(1392, 1392, kernel_size=(5, 5), stride=(1, 1), padding=(2, 2), groups=1392, bias=False)
          (1): BatchNorm2d(1392, eps=1e-05, momentum=0.1, affine=True, track_running_stats=True)
          (2): SiLU(inplace=True)
        )
        (2): SqueezeExcitation(
          (avgpool): AdaptiveAvgPool2d(output_size=1)
          (fc1): Conv2d(1392, 58, kernel_size=(1, 1), stride=(1, 1))
          (fc2): Conv2d(58, 1392, kernel_size=(1, 1), stride=(1, 1))
          (activation): SiLU(inplace=True)
          (scale_activation): Sigmoid()
        )
        (3): ConvNormActivation(
          (0): Conv2d(1392, 232, kernel_size=(1, 1), stride=(1, 1), bias=False)
          (1): BatchNorm2d(232, eps=1e-05, momentum=0.1, affine=True, track_running_stats=True)
        )
      )
      (stochastic_depth): StochasticDepth(p=0.16923076923076924, mode=row)
    )
    (5): MBConv(
      (block): Sequential(
        (0): ConvNormActivation(
          (0): Conv2d(232, 1392, kernel_size=(1, 1), stride=(1, 1), bias=False)
          (1): BatchNorm2d(1392, eps=1e-05, momentum=0.1, affine=True, track_running_stats=True)
          (2): SiLU(inplace=True)
        )
        (1): ConvNormActivation(
          (0): Conv2d(1392, 1392, kernel_size=(5, 5), stride=(1, 1), padding=(2, 2), groups=1392, bias=False)
          (1): BatchNorm2d(1392, eps=1e-05, momentum=0.1, affine=True, track_running_stats=True)
          (2): SiLU(inplace=True)
        )
        (2): SqueezeExcitation(
          (avgpool): AdaptiveAvgPool2d(output_size=1)
          (fc1): Conv2d(1392, 58, kernel_size=(1, 1), stride=(1, 1))
          (fc2): Conv2d(58, 1392, kernel_size=(1, 1), stride=(1, 1))
          (activation): SiLU(inplace=True)
          (scale_activation): Sigmoid()
        )
        (3): ConvNormActivation(
          (0): Conv2d(1392, 232, kernel_size=(1, 1), stride=(1, 1), bias=False)
          (1): BatchNorm2d(232, eps=1e-05, momentum=0.1, affine=True, track_running_stats=True)
        )
      )
      (stochastic_depth): StochasticDepth(p=0.17692307692307693, mode=row)
    )
  )
  (7): Sequential(
    (0): MBConv(
      (block): Sequential(
        (0): ConvNormActivation(
          (0): Conv2d(232, 1392, kernel_size=(1, 1), stride=(1, 1), bias=False)
          (1): BatchNorm2d(1392, eps=1e-05, momentum=0.1, affine=True, track_running_stats=True)
          (2): SiLU(inplace=True)
        )
        (1): ConvNormActivation(
          (0): Conv2d(1392, 1392, kernel_size=(3, 3), stride=(1, 1), padding=(1, 1), groups=1392, bias=False)
          (1): BatchNorm2d(1392, eps=1e-05, momentum=0.1, affine=True, track_running_stats=True)
          (2): SiLU(inplace=True)
        )
        (2): SqueezeExcitation(
          (avgpool): AdaptiveAvgPool2d(output_size=1)
          (fc1): Conv2d(1392, 58, kernel_size=(1, 1), stride=(1, 1))
          (fc2): Conv2d(58, 1392, kernel_size=(1, 1), stride=(1, 1))
          (activation): SiLU(inplace=True)
          (scale_activation): Sigmoid()
        )
        (3): ConvNormActivation(
          (0): Conv2d(1392, 384, kernel_size=(1, 1), stride=(1, 1), bias=False)
          (1): BatchNorm2d(384, eps=1e-05, momentum=0.1, affine=True, track_running_stats=True)
        )
      )
      (stochastic_depth): StochasticDepth(p=0.18461538461538465, mode=row)
    )
    (1): MBConv(
      (block): Sequential(
        (0): ConvNormActivation(
          (0): Conv2d(384, 2304, kernel_size=(1, 1), stride=(1, 1), bias=False)
          (1): BatchNorm2d(2304, eps=1e-05, momentum=0.1, affine=True, track_running_stats=True)
          (2): SiLU(inplace=True)
        )
        (1): ConvNormActivation(
          (0): Conv2d(2304, 2304, kernel_size=(3, 3), stride=(1, 1), padding=(1, 1), groups=2304, bias=False)
          (1): BatchNorm2d(2304, eps=1e-05, momentum=0.1, affine=True, track_running_stats=True)
          (2): SiLU(inplace=True)
        )
        (2): SqueezeExcitation(
          (avgpool): AdaptiveAvgPool2d(output_size=1)
          (fc1): Conv2d(2304, 96, kernel_size=(1, 1), stride=(1, 1))
          (fc2): Conv2d(96, 2304, kernel_size=(1, 1), stride=(1, 1))
          (activation): SiLU(inplace=True)
          (scale_activation): Sigmoid()
        )
        (3): ConvNormActivation(
          (0): Conv2d(2304, 384, kernel_size=(1, 1), stride=(1, 1), bias=False)
          (1): BatchNorm2d(384, eps=1e-05, momentum=0.1, affine=True, track_running_stats=True)
        )
      )
      (stochastic_depth): StochasticDepth(p=0.19230769230769232, mode=row)
    )
  )
  (8): ConvNormActivation(
    (0): Conv2d(384, 1536, kernel_size=(1, 1), stride=(1, 1), bias=False)
    (1): BatchNorm2d(1536, eps=1e-05, momentum=0.1, affine=True, track_running_stats=True)
    (2): SiLU(inplace=True)
  )
), AdaptiveAvgPool2d(output_size=1)]
INFO:root:{'batch': 0,
 'bd_test_loss_avg_over_batch': 5.503412502152579,
 'clean_test_loss_avg_over_batch': 1.3829659042936382,
 'epoch': 0,
 'test_acc': 0.6620238095238096,
 'test_asr': 0.073,
 'test_ra': 0.718,
 'train_acc': 0.9156944444444445,
 'train_epoch_loss_avg_over_batch': 0.21974986984449274}
…
